pretrained_CNN/results/model.pth (torch_old, 88644 bytes, 8 tensors)

conv1.weight f4 [10, 1, 5, 5]
00000000: 78e1 883e d26b 9e3e f069 cc3e 22c4 553e
00000010: 9066 d33e d801 9d3d 8ece 573e 6670 3a3e
00000020: 1e2d 8d3e 05cc 2c3d 2e7a 54bc 077b 01be
00000030: c133 69be 7ee7 febd ad1b a43d 355e a7bd
00000040: b785 9bbe 123a 813c 562a afbe 646a c43b
00000050: 3f26 5fbe 9204 87be 8f73 97be ff4e 86bd
00000060: 430e b2bd f858 6c3e f0ff 05be 2884 bfbd
00000070: 12d1 af3d be2d 243e f069 643e e105 f1bd
00000080: b600 78be 5f31 57be d7fb 0c3e f6ef a63e
00000090: 70e0 4ebd 9716 45be 040e fbbc 9f54 d4bd
000000a0: b064 ab3e 66b3 1ebe 8743 6cbe d092 11be
000000b0: e07f 2d3d cefa 863e 0ca5 803e c381 80be
000000c0: aeba 93bb 599f 12be 7f11 993d 6721 593e
000000d0: 4aee 1f3d 66a9 76be 24f7 88be 7619 203e
000000e0: a747 953e 7c42 5fbe 52ac c0bd 59a5 a1be
000000f0: e80a 073e a193 c73e 5d2f b43d 59a2 b6be
00000100: 2378 8fbe 8bb1 1f3e a76c 8c3e a4d3 b13e
00000110: 2d11 d83c a8a6 5d3d 0453 d23d cfe0 653e
00000120: d8be b73e d898 8a3e 3bda 913e ca1b adbd
00000130: 11c8 87be 67df 82bd 6969 70bc 49dd 723d
00000140: cc79 53be 2d23 92bd 29cd 97be 3252 cabd
00000150: ec29 c2bc e378 babe 62ea 32be c8e0 d23d
00000160: 0844 a83e 6219 653e 440c 23be 225b e6bd
00000170: 5102 563e c84a 273e b355 9ebd 410c dbbd
00000180: f58f 803e 9c03 8d3e 62f6 243e 9759 f1bc
00000190: b5a3 043e 485a 443e b88d af3d 1492 7c3e
000001a0: d158 163e 6a48 3abc 1afd d3bd 4799 11be
000001b0: fa29 363e 1a4d 843e 7843 b2be c5a2 20be
000001c0: 3b4e 453b 8fbe 513e 3131 c03e 5f31 2bbe
000001d0: a549 24be 211b 683e 6118 c43e 8e87 903d
000001e0: 8bc3 083c a4c5 7d3e a3f3 613d 5a88 86ba
000001f0: 6b5a 783e 2b31 ae3d 9244 4cbe 7a40 bcbe
00000200: 8930 b6be 48ee b4be cbc7 9fbe 9c8b e1be
00000210: 4c53 87be 71d8 41be 0811 e9bd 0eaf 1c3d
00000220: dc5a d8bc de10 933e e306 6b3e 3eef cc3d
00000230: a2fe b83e 6122 d93e 23bc 423e f281 e73e
00000240: dbe7 ad3e f2d2 813e 0541 4a3e 8364 d13d
00000250: 87fc c7bd 589c 1d3c 5725 1e3e 2d15 86bd
00000260: 0f38 db3d fec7 79bd 776d ddbb d75e 89bd
00000270: 55c7 dabd d9ca 6abe 9f67 15be 5651 9bbd
00000280: 4ca9 4e3c 770d 6d3d 6aef 133e 8506 023d
00000290: 76ff 90be b9fe f5bd 92c4 9abd fe1e fbbd
000002a0: b87d ed3d b0a9 cebc 7d94 ae3e 9565 e93d
000002b0: 239c 4a3e 0037 8dbc cf68 893e c054 8dbd
000002c0: cce0 603e 278b cb3b f0d9 3dbe 9a79 c2bd
000002d0: a26f 39be 6124 753e 1641 033e 2aef 2b3d
000002e0: 807b 99bd c2fc 09be 0141 613e 056c f03e
000002f0: 217f b63e dd3a fe3d 2b2b a5be d06e 4dbc
00000300: 1763 32bc 0959 b1bc 42f6 813e 74e6 c5be
00000310: b2f6 91be b5ce 85be afee 84bd 7b70 0fbe
00000320: 50be b8be cfb0 bfbe 6d05 5ebe 9bab 7cbe
00000330: ea31 903d cccd 2bbd 35b1 9bbd 04af a8bd
00000340: 8133 8ebe 2564 1cbe a175 65bc 44cf 22be
00000350: d12a 0ebe 325d 10be 4e72 abbe da22 113e
00000360: 6691 b83c 0c29 a73b 4349 0c3d be94 8ebd
00000370: 0ce2 043e 55a2 4d3e f878 953e 8358 a3bb
00000380: 247b 3d3e 62f1 943e 2517 cc3e 0061 a53e
00000390: b6cb 223e 2d06 703d 5302 c23e 301f 423e
000003a0: 7b10 c6bd 5ff0 92be 1a24 4fbe f37b db3e
000003b0: 62ce 87bc f0c6 7ebe a070 bdbd 8c37 86bd
000003c0: 1247 363e 6504 38be 302f e0bd 0c68 46be
000003d0: 6f5d 65be aec5 893c 4971 17be 1d6b 53be
000003e0: 6765 87bd 01bd a3bd
0.2673452 0.30941635 0.39924574 0.208756 0.41289186 0.07666367 0.21074888 0.18206939
0.27573484 0.042186756 -0.012968583 -0.12644587 -0.22773649 -0.124464974 0.08013091 -0.081722654
-0.30375454 0.01577476 -0.34211987 0.005994128 -0.21791933 -0.26370674 -0.29580352 -0.06558036
-0.086941265 0.23080814 -0.13085914 -0.09351379 0.08584799 0.16033074 0.22306037 -0.117686994
-0.24219021 -0.21014927 0.13767944 0.3260495 -0.05050701 -0.19246899 -0.030646332 -0.10367703
0.33475256 -0.15498123 -0.23072635 -0.14216161 0.04235828 0.26363224 0.2512592 -0.25099
-0.004508338 -0.14318599 0.0747404 0.21204148 0.03904561 -0.24088058 -0.26751053 0.15634713
0.2915623 -0.21802706 -0.094078675 -0.31571463 0.13187754 0.3897982 0.08798096 -0.35670736
-0.28021345 0.15595071 0.27426645 0.3473178 0.026375378 0.054114014 0.1026974 0.22449039
0.3588779 0.27069736 0.2848681 -0.08452566 -0.26519826 -0.06390267 -0.014673569 0.059293065
-0.2065193 -0.071356155 -0.29648712 -0.09878959 -0.02370163 -0.36420354 -0.17472222 0.1029678
0.32864404 0.22372964 -0.15922648 -0.11247851 0.20899321 0.1633712 -0.077311896 -0.106956966
0.2510983 0.27541816 0.16109613 -0.029461665 0.12953074 0.19175065 0.085719526 0.246651
0.14682318 -0.011369804 -0.1035101 -0.14218627 0.1778945 0.25840074 -0.348171 -0.15687092
0.0030106443 0.20482849 0.3753753 -0.16718052 -0.16043718 0.22666599 0.3829985 0.07057105
0.008347402 0.24782425 0.05516399 -0.0010264025 0.24253242 0.08505472 -0.19948032 -0.36767942
-0.35583904 -0.35338044 -0.31207117 -0.44051826 -0.26430738 -0.18930222 -0.113802016 0.038252883
-0.026410513 0.28723806 0.22951846 0.10006569 0.3613177 0.42409042 0.19017081 0.45216328
0.33965954 0.2535625 0.19751365 0.10224249 -0.09764963 0.009619795 0.15443932 -0.06547008
0.10704052 -0.060981743 -0.006757434 -0.067075424 -0.10682551 -0.22928943 -0.1459031 -0.07583873
0.012613606 0.05787417 0.14446798 0.0317445 -0.283199 -0.12011475 -0.07557024 -0.12261771
0.115962446 -0.025227398 0.34097663 0.11396328 0.19786124 -0.01723814 0.26837775 -0.069009304
0.21960753 0.0062116566 -0.18540168 -0.0949585 -0.18108991 0.23939659 0.12817797 0.04197613
-0.07494259 -0.13475326 0.21997453 0.46957412 0.35643867 0.12413571 -0.32259497 -0.012538627
-0.010887883 -0.0216489 0.25383192 -0.38652384 -0.28508526 -0.26134267 -0.06490838 -0.14007752
-0.36082697 -0.37439582 -0.21681757 -0.24674837 0.0704077 -0.04194431 -0.07602159 -0.082365066
-0.2777367 -0.15272577 -0.014005096 -0.15899378 -0.1388352 -0.14098051 -0.33485645 0.14173451
0.022530269 0.0051013287 0.034249555 -0.06961964 0.12976855 0.20081456 0.29193854 -0.0049849167
0.18504006 0.2909041 0.39861408 0.32300568 0.15898022 0.05859964 0.37892398 0.1895721
-0.09671112 -0.28699014 -0.20228615 0.42868003 -0.016577903 -0.24880576 -0.09249997 -0.065535635
0.17800549 -0.17970426 -0.109465 -0.19375628 -0.22398923 0.016817894 -0.14789309 -0.20646329
-0.06611138 -0.07995034

conv1.bias f4 [10]
00000000: 985b 8c3d ea95 f33d 4221 8e3d f46e 42bd
00000010: d4c9 383e 154e b2bd 0376 7dbd 5269 98bd
00000020: c62a 563e 5142 543d
0.068534076 0.11893828 0.06939937 -0.047469094 0.18045741 -0.08706299 -0.061880123 -0.07441963
0.20914754 0.051821057

conv2.weight f4 [20, 10, 5, 5]
00000000: 9bc1 b0bd 67b9 8ebc 7549 2f3c bb55 453d
00000010: 9a30 973b c69b b1bc f5cc 0fbe 552a 4bbd
00000020: 0d17 37bd 2150 d1bc 5971 4cbd 03fe f8bd
00000030: 00b6 bdbd e635 2f3c e303 a8bd 49e2 2dbd
00000040: d167 61bd 379e 723c c7c1 3ebd 45bb 55bd
00000050: b7ea 13be 8617 57bd 36db 3c3a f520 583d
00000060: 5e93 68bd f666 8f3d b195 16bc 4653 c23c
00000070: 8060 b33b 7321 57bd fcf4 10bc 3de0 dcbc
00000080: 5cd3 6b3b 48bc 393c fd6f 56bc 466e 883d
00000090: 7ac8 b6bc a728 983d 32c5 093d 601d 2bbb
000000a0: 3e7e 9cbc e051 8d3d 7330 a33d 9ffd 603d
000000b0: c76f 10bd e853 a73c c4d5 413c b5f2 153d
000000c0: 1ae3 7dbd 1e2b b8bd f93e c2bd 2911 86be
000000d0: 420c 55be 6cb9 08be b651 ec3c 86f5 1ebe
000000e0: 5fed dfbd cb40 2a3d 57fd d83c 6fc3 103a
000000f0: 6850 6dbe 38bb 6abd 4990 2e3e 3ed2 173d
00000100: 1573 acbd 20e1 d6bd 99ca d33d 67d4 363e
00000110: bebb 933d 9ce0 82bd 3ba9 8d3d 56b3 953d
00000120: eb10 f33d 99c5 e73c 5abd 52bd 0706 cabb
00000130: 8893 3f3d b99c 9e3c ae27 e73d 0e61 883d
00000140: c94a e13c 5b77 1d3e d0de d83d 2167 ed3d
00000150: 6891 1a3d c0c8 5d3c 190e 8a3d 5ee7 7b3d
00000160: 19b4 7ebc 0da9 073d e2eb 6cbb 4a81 533d
00000170: 47fb 2f3d 8712 0d3c 987a 093d eb95 343d
00000180: ec29 353d 1661 44bc a9dd b6bc a9d8 43bd
00000190: e1cf 67be 29df c1bd 13b9 a73d 5f66 dd3d
000001a0: 67fe 063e 7330 01be 4c17 1c3d 350e 0f3d
000001b0: f8c6 8bbd 1002 2cba ce49 d1bb 42fd c83d
000001c0: 7238 503c adf2 14bb 7a68 9abc a582 ea3c
000001d0: f34f 663d e0a2 3fbd c10e bfbc 7eca e5bc
000001e0: 7262 7c3d e320 18bd edfa fd3b 7675 8fbb
000001f0: 75c9 aabd b0ab 9fbd 4095 00be ea59 debd
00000200: 71e4 82bc 12e0 d7bc 739c 08be 2166 9fbc
00000210: dfa6 4c3d 8210 073d 15dc dfbd 67e9 0fbe
00000220: 9eaa 16be 129e 01bd 7646 f1bc e286 abbd
00000230: 9b3d e9bc 1724 f0bd dcab 27be 2817 1d3d
00000240: cfb4 5f3c 0512 c73a 2cab 0dbe fa98 08be
00000250: 12b6 e33c 9092 773d 71d6 76bd 6cb0 63bc
00000260: 2523 c83c 769b 86bd a9dd d73b 5364 f93c
00000270: dc43 4a3d 3d0c 6abc 9555 93bd 0963 f3bc
00000280: c7d3 1cbd 78f7 28bd 8489 a83c ec42 55bb
00000290: f075 433d d969 523d 7553 b9bd d720 a4bd
000002a0: d98c a8bc 4b7b 4dbd 2a32 dfbc 0ce1 7fbd
000002b0: c460 1fbc 4b23 e1bc 0851 7d3d 5c9a 7ebd
000002c0: 1c16 73bd 8be8 66bd bede 323d 0e23 c23c
000002d0: fbe5 51bd eaf4 5cbd 70ae 9cbd 8c50 30bd
000002e0: e54f 373d 40b0 bbbc eb27 acbd f109 12bd
000002f0: 6025 df3b 5a0f 24bd d6a6 f0bc 86d1 bc3b
00000300: 7d7b 8f3c c2fb 1cbc 8be3 ae3c 6d11 45bd
00000310: 6d6b 073c ee71 b63d d765 153d 4a6c 7c3d
00000320: 46d6 36bc ed7b 383d 4796 833d dda5 d7bc
00000330: fa09 55bd f569 88bd 6563 6e3d 7a7f 453d
00000340: d8c5 843b 3347 65ba 5ccc 7fbd 717f b1bd
00000350: eec6 80bd 1516 8a3c e3af 9cbc 2b20 73bb
00000360: 79db 2cbb be1d 87bd 79c6 46bd d0fd 8e3b
00000370: a107 173b 2ad6 a5bc bf28 b03c 0459 903c
00000380: dd79 233d fb23 563d 3b5f 98bd 8d2e 0cbd
00000390: 5ada ecbc af69 673d cbc3 eb3d 105f 9dbd
000003a0: e25a 20bc c76b 813d 2679 f63c b008 14ba
000003b0: 2296 343d 32e9 163e d1ca c53d 9c70 903b
000003c0: d7eb 59bd 57e2 2abd 0df5 593d c4a6 2d3c
000003d0: d8c3 bc3c b9c2 853d 540f 423d c92b 373d
000003e0: b472 a2bd ca0f 95ba 2818 88bc d806 2fbd
000003f0: 5f91 87bd e871 af3d 3ed7 ab3d ee7e 39bc
-0.08630677 -0.017422391 0.010698666 0.048177462 0.004613948 -0.021680724 -0.14043029 -0.049600918
-0.044699717 -0.025550904 -0.049912784 -0.12157824 -0.09263229 0.010694003 -0.08203866 -0.04245213
-0.055030648 0.014808229 -0.04657152 -0.052180547 -0.14445005 -0.052512668 0.0007204296 0.052765805
-0.056781165 0.0700206 -0.009190963 0.023721348 0.00547415 -0.052522134 -0.008847471 -0.026962394
0.0035984134 0.011336394 -0.0130882235 0.06661658 -0.022312392 0.07429629 0.033635326 -0.0026110038
-0.019103166 0.06900382 0.07968225 0.054929372 -0.03526285 0.020425752 0.011830751 0.036608417
-0.06198416 -0.08992599 -0.09484667 -0.26184967 -0.20805457 -0.13351983 0.028847557 -0.15523347
-0.10933947 0.041565698 0.02648799 0.0005522286 -0.23175204 -0.057307452 0.17047228 0.037065737
-0.08420388 -0.10492158 0.10341377 0.17854463 0.07213543 -0.06390497 0.06917044 0.07309596
0.11868461 0.028292464 -0.05145011 -0.0061652693 0.046771556 0.01936184 0.11286865 0.06659137
0.02750148 0.15377562 0.10589373 0.11591936 0.037736326 0.013536632 0.0674097 0.061499946
-0.015545868 0.033120204 -0.003615134 0.05163697 0.042964246 0.008610374 0.03356418 0.044088285
0.044229433 -0.011986038 -0.022322493 -0.047814045 -0.22637893 -0.094663925 0.08189597 0.10810541
0.13182984 -0.12616138 0.038108155 0.03492566 -0.0682506 -0.00065615866 -0.006386972 0.0981393
0.01270877 -0.0022727654 -0.018848646 0.02862675 0.05622859 -0.04678619 -0.023322465 -0.028050657
0.061617322 -0.03714074 0.00775086 -0.004378016 -0.08339206 -0.07796419 -0.12556934 -0.108569935
-0.01597807 -0.026351962 -0.1334093 -0.019457879 0.04996383 0.032974727 -0.10930649 -0.1405388
-0.14713523 -0.03164489 -0.029452544 -0.08375336 -0.028471759 -0.117256336 -0.16374153 0.03835216
0.013653948 0.0015187865 -0.13834828 -0.13339606 0.027796779 0.060442507 -0.0602631 -0.013897043
0.02443082 -0.065726206 0.0065877032 0.030443346 0.049381122 -0.014285144 -0.07194058 -0.02971031
-0.038287904 -0.04125163 0.020573385 -0.003254111 0.047719896 0.051370475 -0.09049121 -0.08014076
-0.020574974 -0.05016641 -0.0272456 -0.06247048 -0.009727661 -0.02748265 0.061844856 -0.062158927
-0.059347257 -0.056374114 0.043669455 0.023698356 -0.051244717 -0.053944506 -0.07650459 -0.043045565
0.044753928 -0.022911191 -0.08406051 -0.035654012 0.0068098754 -0.040053703 -0.029376429 0.005762282
0.017514938 -0.009581508 0.021348735 -0.04811232 0.008265358 0.08908449 0.036474075 0.06162671
-0.011159485 0.04504006 0.064251475 -0.026324207 -0.052011468 -0.06660835 0.05820026 0.048217274
0.004051905 -0.0008746266 -0.06245075 -0.08666886 -0.06287943 0.016856233 -0.019126838 -0.003709803
-0.0026375933 -0.0659747 -0.048529122 0.004363753 0.0023045319 -0.020243723 0.021503804 0.017620571
0.03991114 0.052280407 -0.07440039 -0.03422408 -0.028912712 0.056497272 0.11511954 -0.07684147
-0.009787293 0.06319385 0.030087065 -0.00056470465 0.04408849 0.14737394 0.09657825 0.0044079553
-0.05320343 -0.04171976 0.053212214 0.010598842 0.023042604 0.06531281 0.0473779 0.04471949
-0.07932034 -0.0011372503 -0.016613081 -0.042731136 -0.06619524 0.08566648 0.083906636 -0.011321766

conv2.bias f4 [20]
00000000: 23b2 b4ba 6b5f e63c 6525 84bc 4a87 9ebd
00000010: a82d bc3c a534 25bb c69e 183d 8377 3d3d
00000020: 12af debc a655 833c 42b3 863d 6aa8 9d3b
00000030: 1ecf 9dbc 2624 783d 3343 59bd 728d 52bd
00000040: 25a4 d43c 7577 03bd 1fec 5c3c 757d 1d3d
-0.0013785999 0.02812167 -0.016131112 -0.07740648 0.02297099 -0.002520838 0.037260793 0.046256553
-0.02718309 0.016032051 0.065771595 0.0048113363 -0.0192638 0.06058135 -0.0530426 -0.051404424
0.025957176 -0.032096345 0.01348403 0.038449723

fc1.weight f4 [50, 320]
00000000: 443b 453d de68 2d3d 0126 ca3d 4d0f 8d3d
00000010: 1a7b 3c3c a8ee 5dbb 2f4b 47bc 0f23 1abd
00000020: 037a 35bd b84f e0bc 1a4c e63d 4045 83bc
00000030: 0534 febc 29e4 a2bd fbf6 4c3d bf72 5abd
00000040: a9ff 84bb 71a3 89bd 53f1 803d 7492 523d
00000050: d13f 9ebd 0dee b2bc 25a3 ce3c ae92 cc3b
00000060: 3681 9cbc 3c0a 86bd 12ee e23a 03fc 40bc
00000070: b5f1 46bd 9be1 74bc bfbf 87bd 9075 3a3d
00000080: 4a5b eabc a3df b3bd 82a8 9fbd 0aac b13c
00000090: 068a 64bd 4e3e 9fbc 0ef7 893c 50dd 003e
000000a0: 8dfb 16bd 1253 1b3d eeb0 ad3c 21de 113c
000000b0: 9770 f8bc b032 92bd 7113 4d3d e33c 83bd
000000c0: 7212 363d 1a9d c8bc cdd1 16bd edc7 bb3c
000000d0: 648b 4d3d ec8d 413c 1ed9 673a ea2f 253c
000000e0: 37fb 483d 69a0 24bd 7d79 e2bc 5bce ee3a
000000f0: 3a87 463d 9f75 6bbb 94d4 a4bb 2ece 2f3c
00000100: b0a5 d9bc fb3e a03c c772 d1bd a6a2 3dbd
00000110: db15 0ebd 1307 d63d 0c98 07bd ecff b73d
00000120: 200b bfbd 8a74 013d fedc b23c 16a9 f8bc
00000130: c550 cfbd 2705 cfbb 68b2 87bc 69e6 3c3c
00000140: e29e 51bd 1433 0f3d d710 643d c613 b23d
00000150: f12b b63c decd b63c e6d9 6ebc 1656 febc
00000160: 9c2b 493c 3cce 5f3d 626e 88bd 9d8a 39bc
00000170: 2f5c 233d 10d6 813d ffc8 7d3d 0ed6 353c
00000180: ef4e d83c 70be f8bb c326 bc3d 4848 0d3c
00000190: 9536 823c ace3 e6bc 2c11 06bc 6861 edbd
000001a0: 36f4 563a ad93 8c3b 0700 893d 8d38 13bc
000001b0: 6934 a2bd 6c99 90bd 1f76 5abc eacd ab3c
000001c0: e272 c4bd ca98 e83c 4e2b 1dbd 1a32 efbd
000001d0: 4aca 23bb 358b 76bb 0e90 50bb 3dce 983d
000001e0: 8240 213d 8f72 70bd 8349 86bb 5962 d23b
000001f0: 093b e4bc 0258 053d 9521 193c f7e8 6abc
00000200: 7665 15bd 689a 993d e83f e63c 75c7 ce3c
00000210: d0d3 ddbc b4bc 6b3a 6bdd 21bd 3150 81bc
00000220: 9b0c 4dbc 1d1c 3a3d b1d0 2a3d 0455 c4bc
00000230: 3ce3 6d3c 1233 c03b bfaa 82bc 2fc8 9a3c
00000240: a566 22bc 7dce ee3c bb6d 153d 47f1 69bc
00000250: b469 4d3d e89f bd3c 9b10 8abb 6c6a ea3c
00000260: b444 27bd ac3a f33c 65a4 ffbc 1ee0 ec3c
00000270: 2ff9 91bd 11de 703d a253 2dbd 7d8f 9e3b
00000280: e440 33bd c67a f73b 7b90 f7bd a18d bc3b
00000290: cd64 10bd f295 dcbd 8ff6 e0bd bf8a b33c
000002a0: de03 acbd ec4f 3b3c a5f7 603d 84dd dfbc
000002b0: d069 10ba c2cc 853d c4b2 dcbc 4dcf 9bbb
000002c0: 0df1 d1bd 525a 70bd a1c1 acbd 00af 47bc
000002d0: 95d7 f5bd 899e aa3b 0708 aa3c a761 83bd
000002e0: bca3 e0bc 2a52 ba3b d068 9abb e821 aebc
000002f0: 3d32 06bd 86c9 0a3d 314c b43d 4fed 3bbd
00000300: 5859 58bd a208 febb aa3c d3ba a83f 403c
00000310: 7a27 313d 2bf5 af3c d19c 373d 7d16 c3bd
00000320: 5551 a73c 818a 54bc daca 0e3d c111 2dbd
00000330: 12aa b3bd f516 ddbb 68a0 c23b aafe 89bd
00000340: b88b d73c 4948 4c3d 8999 c23d 48dd 53bd
00000350: fe5e fcbb ed07 eb3c 677e e53c 7389 a83c
00000360: 4311 443d 78db 10bd ca4d 193b cf43 87bc
00000370: d2ec 953c 1f78 d53c b1ec 20bc b612 15bd
00000380: 8281 913c 7362 7ebd bc38 20bc da4f 1bbd
00000390: 9dfc 9dbb 597b 88bd e0be 9a3b 57fc 653d
000003a0: d988 88bd 439f f1bc 2c24 223c 7ad8 e9bb
000003b0: da3e bdbc 4e25 fa3b 5c94 123c 4d21 39bc
000003c0: ece1 2fbd 2302 27bd 2fa0 38bd 0b63 be3c
000003d0: 6c16 eebd 8246 81bd 942d ccbc 23c8 7c3d
000003e0: 7f16 bbbd 7b3a d1bc e5d4 ea3c 1b38 32bc
000003f0: 1287 52bd 6b99 333d 3a4c 893d 86a9 4c3d
0.048152223 0.042336337 0.0987053 0.06887684 0.011503959 -0.0033864174 -0.012163921 -0.03763109
-0.044305813 -0.027381763 0.11244984 -0.016024232 -0.031030664 -0.07953674 0.050040226 -0.053332087
-0.0040587974 -0.06720627 0.06296029 0.0514092 -0.07727016 -0.021842027 0.025224278 0.0062430715
-0.019104581 -0.06544921 0.0017313382 -0.011778834 -0.048570354 -0.014946367 -0.066283695 0.045522273
-0.028607983 -0.0878289 -0.07795812 0.02168848 -0.055795692 -0.019438889 0.016841438 0.12584424
-0.03686099 0.03792102 0.02120253 0.008903057 -0.030327125 -0.07138574 0.05006737 -0.064080976
0.044451185 -0.024488974 -0.036821175 0.02292248 0.05018176 0.011813622 0.00088443037 0.010082224
0.049067702 -0.04019204 -0.02764582 0.0018219458 0.048468806 -0.0035928262 -0.005030224 0.010730309
-0.026568264 0.019561281 -0.1022697 -0.04629769 -0.03468881 0.10450568 -0.033103988 0.0898436
-0.09328294 0.03160528 0.021833893 -0.030354064 -0.101228274 -0.006317753 -0.016564563 0.011529543
-0.051176913 0.03496082 0.055680122 0.08695178 0.02223775 0.022314962 -0.014578318 -0.031046908
0.012278464 0.05464004 -0.06661679 -0.011324552 0.039882835 0.06339657 0.061959263 0.011098398
0.026404826 -0.0075910613 0.09187081 0.00862319 0.015895167 -0.028184734 -0.008182805 -0.115908444
0.00081998424 0.0042900653 0.06689458 -0.008985651 -0.07920153 -0.07060513 -0.013333826 0.02097221
-0.09592225 0.028393168 -0.038371377 -0.11679478 -0.00249924 -0.0037619595 -0.0031824145 0.07461212
0.03936816 -0.058703 -0.0040981187 0.0064204154 -0.027860181 0.032554634 0.0093463855 -0.01433777
-0.036473714 0.07500154 0.028106645 0.025241593 -0.02707854 0.00089926575 -0.0395178 -0.015785309
-0.012515212 0.045436967 0.04170293 -0.02396632 0.014519509 0.005865463 -0.015950559 0.018894283
-0.009912168 0.029151196 0.0364816 -0.014278716 0.050149634 0.023147538 -0.0042134053 0.028615199
-0.040837005 0.029691063 -0.03120632 0.028915461 -0.07127606 0.05880553 -0.042316087 0.0048388825
-0.043763056 0.0075524775 -0.12088104 0.005754188 -0.03525238 -0.10770787 -0.10984527 0.021916745
-0.08399175 0.011432629 0.054923672 -0.027327307 -0.00055089314 0.06533195 -0.02694071 -0.004754937
-0.10251055 -0.058679886 -0.08435369 -0.012187719 -0.1200401 0.005206887 0.02075578 -0.0641511
-0.027421825 0.0056860643 -0.0047122017 -0.021256402 -0.032762755 0.033883594 0.08803595 -0.045880612
-0.05281958 -0.007752494 -0.0016116102 0.011733927 0.04325054 0.02147921 0.044827286 -0.09525774
0.020424524 -0.012972475 0.034861423 -0.04225326 -0.08772673 -0.0067471215 0.005939532 -0.067380264
0.02631174 0.049873624 0.09501941 -0.051724702 -0.0077017536 0.028690303 0.028014375 0.020573353
0.047868025 -0.03536555 0.0023392313 -0.016511826 0.018301401 0.026058255 -0.009822057 -0.036394797
0.01776195 -0.062105607 -0.0097791515 -0.03791795 -0.0048213736 -0.06664152 0.004722461 0.056148853
-0.066667266 -0.029494887 0.009896319 -0.0071364017 -0.023101259 0.0076338416 0.008946504 -0.011299443
-0.042940065 -0.040773522 -0.045074638 0.023240587 -0.116253704 -0.063122764 -0.024924077 0.061714303
-0.0913515 -0.025540581 0.02866597 -0.010877634 -0.051398344 0.043847483 0.06703992 0.049966358

fc1.bias f4 [50]
00000000: 92b4 e13b 4e9e c5bc 603d 5abd 9f10 bc3c
00000010: 447e 573d b4fb 0a3c f3f3 a63c e687 ea3c
00000020: b048 7d3d 6047 743d 431c 873d bb19 0f3d
00000030: b788 573d 3c85 0c3a 3977 e4bc 529f 99bc
00000040: 596c a8bb 4d04 8c3d e06d 0e3c 2d42 273d
00000050: d4fa 0b3d af5e 833d 6415 823c c13f 893d
00000060: fc36 c9bc e400 513b 3eaf 233d 1f96 32bc
00000070: d642 e6bc 9e24 aebc 8da2 ecbb 055b bfbc
00000080: b184 ca3c f0a9 293d 24fa d33c 0874 883b
00000090: b816 773d f30c a63d ee2a c93c 32d2 ce3c
000000a0: 14bf 113c 8874 d33c 6b57 91bb 1ee2 3f3c
000000b0: 449e be3d 90c6 743c f936 0b3d 3c24 cc3c
000000c0: 8ed1 213d 9235 443d
0.0068879807 -0.024123337 -0.053281188 0.022957144 0.05261065 0.008482862 0.020379996 0.028629255
0.0618369 0.05963838 0.06597187 0.034936648 0.052620616 0.00053604296 -0.027888881 -0.018752728
-0.005139869 0.06836758 0.008693188 0.040834595 0.034174755 0.06414544 0.01587934 0.06701613
-0.024562351 0.00318914 0.039962046 -0.0109000495 -0.028108042 -0.021257695 -0.007221526 -0.023358831
0.024721475 0.04142183 0.025876112 0.0041642226 0.0603244 0.081079386 0.024556603 0.025246713
0.008895654 0.025812402 -0.00443547 0.011711625 0.093075305 0.014939919 0.033987973 0.024919622
0.039506488 0.04790265

fc2.weight f4 [10, 50]
00000000: 167b 12bd e847 de3d 4826 383e 3be2 223e
00000010: 8dac 963e b06d 0cbe 651c 3dbe 20d1 d3bd
00000020: 6135 a8be 8564 4b3e c28c 13be a0a3 20be
00000030: b8d6 22be 613d 91be d3c4 6bbe 5692 613e
00000040: f535 f3bd 1b68 423e d90c 38bd 3aef 1d3e
00000050: 9656 a33d 1c04 77be 043d 48be e1f3 fb3c
00000060: 7780 6f3e 06e5 d73d 047b c6bc 6a78 09be
00000070: 8260 d03d 0cd9 413e a961 1bbe 331f 43be
00000080: 0168 2d3e 6d8b 213c d76c 243e f3e9 0dbe
00000090: 3dbf fabc ad59 86bd c25d 7cbe 914a 4c3d
000000a0: e80a e33a 3a87 1fbe 1c8e 6a3e cb68 26be
000000b0: db27 43be aa0e 923e 6e77 02be 25ca 62be
000000c0: 79a3 373e 3673 0a3e 1aca 8a3e 9d42 90be
000000d0: 6aa9 40bd 9272 eabd fac2 21be d624 17be
000000e0: b453 3fbe f095 443e 24b1 8dbd 69e3 52be
000000f0: 8c57 7d3e e184 5b3e 182d 763e cfad 443e
00000100: 2919 2fbe 0de6 68bc 7e9a 053e 60fd 38be
00000110: 0a40 45bd 5af6 02be ef15 00bd 0d3c 193e
00000120: 11d0 123e 09da ad3e 19de d2bd 6efd 1f3e
00000130: e13d 08be 169f 5f3e 1407 92bd 39f5 30be
00000140: d01c 433e 5d66 09be a89d c3bd c838 01be
00000150: c092 bfbd 773e 2fbe c6e7 3c3e 3fe0 e43e
00000160: 4d61 763e d011 8bbd a235 56be 56e3 f13d
00000170: 42fc 55bd 0e8b 983d e600 643e b5f9 17be
00000180: a696 7bbd 8921 1abe 42bd 8fbd 544e b0bd
00000190: 2d52 233b c16c c4bd 1b77 0f3d 4c2e 813c
000001a0: b597 29be 50d6 5b3e db3b 123d b79e 753e
000001b0: e6c8 92be 6fe0 38bc 039c 50bd 5fe5 04be
000001c0: 4228 573e b31d 69be 91fe 9fbd b71c 303e
000001d0: a352 313e 0547 493e 574d 05be 85a0 803d
000001e0: e99c 2a3d 1ff8 5ebe f48a 8bbe 01ca 2abe
000001f0: e7c5 dd3c 1758 553e e735 0d3e 1b39 5f3e
00000200: a69f 273e 2e17 313e 6f5d acbd 7095 f1bc
00000210: eda8 05be 9da4 5b3d f221 84bd ec8b f1bd
00000220: d8e6 2a3e 4413 b33d 3eaa 08be a23e 20be
00000230: 7ddf 5abe 3b22 323e 1c3a 533e 4c38 1a3d
00000240: 6531 5e3e 6d38 2dbe 450e 463e 7fc4 42bd
00000250: 4a47 fcbd e2b8 063e 8b3a 8bbd 53a9 a1bd
00000260: 1246 3f3e cfa1 3a3e 2585 1abe 3035 f13d
00000270: e888 4abd 9ba6 6d3e e1f1 fc3d 40d9 bfbd
00000280: 93c1 5bbe 2c1a 59be 3ad4 97bd d127 563e
00000290: 5abf 853e c9b4 11be 2f12 383e ecb5 c8bd
000002a0: e9fe f4bd 05d9 2c3e f269 d43c fa14 04be
000002b0: c998 49be 5ed4 71be afba 09be 54a3 313e
000002c0: 0e1d 1cbe ddf4 02be 5c2f 143e 1024 f9bd
000002d0: 028b 07be a050 583e a925 afbd 2846 f0bd
000002e0: b99d 18be 17ec fdbd 76cc 5e3e 002d bdbd
000002f0: b998 7b3e d703 a0bd 5ac3 cebd 7bce a23d
00000300: ee0c bcbd f7ca 723e 600a c0bd 6925 c6bd
00000310: eeda 0f3e 10c5 e0bc 874b 54be f2aa 163e
00000320: 4ed5 ff3c c8a8 86be a2b5 223d 85d3 60be
00000330: e534 cebd f3e5 4a3e ff3a 943e 15df b3bd
00000340: e9f6 163e 2334 1bbe 428a 483e 217f 803c
00000350: 1557 333e 87dc 83bb afd4 823e e18d fd3c
00000360: 41b9 4dbe 6c1e 4d3e 9df9 783e f184 54be
00000370: e0d1 c53a c7a7 0f3e 2c2a 023e 2c20 06be
00000380: 3472 44bd 77a9 86be ead5 1cbe 6054 633e
00000390: 61d2 05be 12a8 4e3e 972d 783e 1386 e4bd
000003a0: c801 f73d 6c3e ac3e 7e08 45be b27a 313e
000003b0: f90f e8bd 84c4 41bd 63a0 473d c691 d0bd
000003c0: 3fe5 e7bd 6a53 a23d 57a6 97bd 3d58 6ebd
000003d0: 377e cabd a2b9 b4bd 1323 16be 93e7 703e
000003e0: 2030 00bd 4b4b 88be a991 edbd 9d79 233e
000003f0: 9970 50bd 73c4 2d3e 7881 04be bcb3 47be
-0.035761915 0.10853559 0.17983353 0.15906613 0.2942852 -0.13713717 -0.18467863 -0.10342622
-0.32853225 0.19862564 -0.14409164 -0.15687418 -0.15902221 -0.2836714 -0.23024301 0.22028479
-0.11875526 0.18985026 -0.044934127 0.15423289 0.07975499 -0.24122661 -0.19554526 0.030755939
0.23388849 0.1054173 -0.02422858 -0.1342484 0.101746574 0.18930453 -0.15173973 -0.1905487
0.16934206 0.009859902 0.16057144 -0.13858776 -0.030608768 -0.06560073 -0.24645141 0.0498758
0.0017321976 -0.15578929 0.22905773 -0.16250913 -0.19058172 0.28526813 -0.12740871 -0.22147425
0.17933454 0.13520512 0.27107316 -0.28175822 -0.047036566 -0.11447634 -0.15797034 -0.14760146
-0.18684274 0.19197822 -0.069185525 -0.20594563 0.24740428 0.21437408 0.2404064 0.19206928
-0.17099442 -0.014215005 0.13047215 -0.18065405 -0.048156776 -0.12789288 -0.031270918 0.14964314
0.14337184 0.3395541 -0.10296268 0.1562402 -0.13304855 0.2183803 -0.07130256 -0.17281045
0.1905396 -0.13417955 -0.09551555 -0.12619317 -0.09354162 -0.17113672 0.1844779 0.44702336
0.24060555 -0.06790507 -0.20918897 0.11810939 -0.052242525 0.074483976 0.22265968 -0.1484135
-0.061422966 -0.15051855 -0.0701852 -0.0860869 0.0024920807 -0.09591056 0.035025697 0.015769146
-0.16561778 0.21468472 0.035701614 0.23986326 -0.28668898 -0.011283978 -0.050930034 -0.12978123
0.21011451 -0.22765236 -0.078122266 0.17198454 0.1731668 0.19655998 -0.13017784 0.06280617
0.041653547 -0.21774338 -0.2725445 -0.16678621 0.027071906 0.20834385 0.13790093 0.21799128
0.16369495 0.17293999 -0.084162585 -0.029490203 -0.13052721 0.053623784 -0.06451787 -0.11794266
0.16689622 0.08743909 -0.13346192 -0.15648893 -0.21374317 0.1739587 0.20627636 0.037651345
0.2169853 -0.16916056 0.19341381 -0.047550675 -0.12318285 0.13156465 -0.067982756 -0.07893624
0.18679073 0.18225788 -0.15089853 0.11777723 -0.04944697 0.23208086 0.12350822 -0.09367609
-0.21460561 -0.2120139 -0.07413526 0.20913626 0.26122552 -0.1422912 0.17975686 -0.09800324
-0.11962683 0.16879661 0.025929425 -0.12898627 -0.19687189 -0.23616168 -0.1345012 0.17347461
-0.15245458 -0.1278872 0.14471191 -0.121650815 -0.13236621 0.21124506 -0.08552105 -0.11732131
-0.14903916 -0.12398546 0.21757683 -0.09237099 0.24569978 -0.078132324 -0.10095854 0.07949539
-0.09182154 0.23710237 -0.09376979 -0.09675104 0.14048359 -0.027437717 -0.20731936 0.14713648
0.031229641 -0.26300645 0.039724 -0.21955688 -0.100686826 0.19814281 0.2895126 -0.08782784
0.14742626 -0.15156607 0.19583991 0.01568562 0.17513688 -0.0040240916 0.2555289 0.030951442
-0.200902 0.20031136 0.2431397 -0.20753838 0.0015092455 0.14028846 0.127114 -0.1309821
-0.047960475 -0.26301166 -0.15315977 0.22200155 -0.13068534 0.20181301 0.24236141 -0.11158385
0.120608866 0.33641374 -0.19241521 0.17331961 -0.113311715 -0.047306553 0.04873694 -0.10184054
-0.11323022 0.07926066 -0.07404774 -0.05818962 -0.09887355 -0.08824469 -0.14661817 0.23525839
-0.031295896 -0.26619944 -0.11600048 0.1596436 -0.05088863 0.1696947 -0.12940013 -0.19502157

fc2.bias f4 [10]
00000000: 75ff b23d ac37 cf3d f48a edbd 7c26 d53d
00000010: 7c7d 6f3d 1fa5 723d decb 13be 5936 f63d
00000020: e018 543d a017 7fbc
0.08740131 0.101180404 -0.11598769 0.10407731 0.05846928 0.059239503 -0.14433238 0.12022085
0.051781535 -0.0155695975
